mnist_qnn_mlp.pt (torch, 554820 bytes, 4 tensors)

fc1.weight f4 [128, 784]
00000000: 17cb d03d 71d2 8a3d 04ed 9c3d bc6f cd3d
00000010: 1c7e 4c3d 70f8 d63d e20e 9c3d 0951 d03d
00000020: 0746 b53d 4526 a23d 7664 bf3d b6b6 ae3d
00000030: c200 c63d 9fcb 8e3d 2b8b a53d e182 a43d
00000040: 02b5 b53d 2cd0 aa3d 640b eb3d e9dd c13d
00000050: e3dd 8f3d 55dc 7d3d 6fd8 9e3d 5f8e 8b3d
00000060: bfaa 933d 8e9b ae3d 39b5 d63d 7fdc d23d
00000070: b135 473d bd72 d83d f889 bf3d 4b7c f03d
00000080: 2f62 db3d f8eb 503d 8b73 2e3d c85b 283d
00000090: c671 e43d 5f19 ba3d 6671 f13d 4b01 9b3d
000000a0: eb77 f43d 7fa8 963d 8194 e83d 5dcf b53d
000000b0: f4a5 963d 2276 f33d cc54 8a3d f17c cc3d
000000c0: 4c44 a73d 1873 ae3d 0dc9 463d 4d98 843d
000000d0: 99cb d23d 7a53 993d 96f5 f33d 68bc e53d
000000e0: 36ae a73d 7e91 743d 00a5 d73d 0dd9 c33d
000000f0: ab50 773d 4b31 db3d 8e3e b93d 6451 be3d
00000100: 3876 253d b2d5 c13d e584 123e aed1 113e
00000110: cf0d c33d 0b00 fd3d bfce 4f3e 40be 593e
00000120: d85a 333e 3b16 733d a3d2 b23d 3a77 e33d
00000130: 422f 0f3e e6a5 113e f54f 873d 32db cb3d
00000140: 2bca 773d 3e7f 683d b78d af3d 29a4 9e3d
00000150: 6210 d63d 00bf 803d 8939 543d aa28 f33d
00000160: 2c17 b73d b5e9 0ebd 84d5 2bbd da70 6ebd
00000170: 006d 823d db45 2c3e 5ef8 363e f66c 223e
00000180: 0edf 4a3e 9451 e13e 4395 613e cb1e c7bc
00000190: 1dc8 ffbb 1ef0 fe3d 96c7 c83d c3b9 3e3e
000001a0: 12c1 acbd c4a2 a03d fdcb 643e e2ab 433e
000001b0: 51f8 3a3e cb5d ec3d 43ac c23d 7cbd e13d
000001c0: e975 f03d c221 753d d19b af3d 4842 e23d
000001d0: bae9 d73d a67f d4bd c376 5ebe d9e6 57be
000001e0: e936 6cbe 55a2 703d b788 85bc adf4 b3bd
000001f0: 1557 d9bb 8f2d eb3d c425 803e 1579 173e
00000200: ce26 1f3e ff01 993e cf39 893e fa9a 7f3e
00000210: ccfd 873e 979e c53e f9a2 ba3e 74a1 583e
00000220: 756b 083d d428 193d 3a27 6e3d aa5d 5b3d
00000230: 1397 893d 9796 a23d af50 793d d26b c13d
00000240: d039 58bd 1ea7 a9be bbd6 cfbe a3ff b1be
00000250: 96ae 7abe 8946 573d d6d1 f03d 5f0d 28bd
00000260: d9d2 91bd 04cb 7e3e 0c93 5c3e 3f86 453e
00000270: d4e9 e93d 9f0b dc3d c827 163e da06 8d3d
00000280: bb93 0d3e 92e2 733e edce 2d3d c2fd 9e3d
00000290: a2b9 9fbd 842a 41bd e599 923c e9ab 9a3d
000002a0: 47a2 613d 22c5 893d 8038 983d 0774 9d3d
000002b0: cfa2 22bd 9c1b fbbd 3b05 8abe feb8 b2bd
000002c0: 8d8e b13a c7ce 0ebe e898 41be 3a37 a43d
000002d0: 637d eb3d bcb5 903e 4c15 103e 2e49 d53d
000002e0: 2c0c 123e 089f 0fbe d74d d9be 2b1f 3fbe
000002f0: 1f94 49bd 16b7 c83d 1bb1 53be 3d7a 9cbe
00000300: 2a5f 3cbe 5602 42be 105a 8b3c 3269 663d
00000310: 2e74 cd3d 08b6 9a3d f71d ed3d 2725 b63d
00000320: 8021 aa3c 5010 c23d ecab b53c 496b c73d
00000330: 2001 a53d 23c4 05be e7b4 c63d d9c8 c13e
00000340: 7043 b63e c7d6 6d3e 5876 ecbc 40ae 04be
00000350: 1fea 8c3d 4a42 56bd 3959 ddbd c000 b2bd
00000360: 4f6e 523d ef83 9c3d 350c 2fbe 9ad6 41be
00000370: 718a 1fbe dbdf a1bd 2875 63bd 21a8 693d
00000380: 0bdd ce3d d75c 693d 3705 983d 08fb 3a3e
00000390: a915 e43d 0955 503e e715 f93d 8deb 50be
000003a0: bc44 58bd d01e a2bd f01a 3f3e 28cf ec3e
000003b0: 51cf 543e 0752 46be e70f 19bf f306 55bf
000003c0: 7d5a 1bbf 843a c5be adfd e6be 8e92 99be
000003d0: 9599 8abd 3eae c3bd d185 cabe 77bc 8ebe
000003e0: 9f01 47be 0f32 babd b63f cc3c 6b5b 8c3d
000003f0: 8859 ae3d 577a c63d b2cb 8b3d 6182 98bb
0.10194986 0.0677842 0.07662395 0.10031077 0.049924955 0.104966044 0.07620026 0.10171706
0.08851247 0.079174556 0.09345333 0.08530943 0.09668113 0.069724314 0.08083185 0.08032776
0.08872415 0.08340487 0.11476782 0.09466154 0.070247434 0.061977703 0.07756125 0.068142645
0.072103016 0.085257635 0.10483784 0.102959625 0.04863519 0.105687596 0.09352487 0.11742457
0.107120864 0.051006287 0.04259066 0.041103154 0.11154513 0.090868704 0.11789207 0.07568606
0.11936935 0.07356357 0.1135645 0.08877442 0.07355872 0.118877664 0.06754455 0.09984768
0.081673235 0.08518046 0.04853158 0.064743616 0.102927394 0.07486625 0.11912076 0.11217576
0.08187525 0.059709065 0.10529518 0.095628835 0.060379665 0.10702761 0.090451345 0.09292868
0.040395945 0.09464587 0.14308508 0.14240143 0.09524118 0.12353524 0.20293711 0.21263981
0.17515123 0.059347373 0.08731582 0.11106725 0.13982871 0.14223441 0.066070475 0.099539176
0.060495537 0.056761973 0.08571952 0.07746155 0.104523435 0.0628643 0.051812682 0.118729904
0.089399666 -0.03489085 -0.04195167 -0.058213092 0.06368446 0.16823523 0.17868182 0.15861878
0.19811651 0.44007552 0.22029595 -0.024306675 -0.007805838 0.124481425 0.09803693 0.1862555
-0.08435263 0.07843545 0.2234344 0.19108537 0.18258788 0.11541327 0.095055126 0.110224694
0.117412396 0.059846647 0.085746415 0.110477984 0.10542627 -0.103759095 -0.21724992 -0.21084155
-0.23067822 0.058748562 -0.016300542 -0.087869026 -0.0066326954 0.11483299 0.25028813 0.14792283
0.15542147 0.29884335 0.26801917 0.24961463 0.2656082 0.38597557 0.36452463 0.2115534
0.033305604 0.037392452 0.058142878 0.053556122 0.06718268 0.07938879 0.06086796 0.09444393
-0.05278951 -0.33135313 -0.40593514 -0.34765348 -0.24480662 0.052557502 0.11758773 -0.041028377
-0.07120294 0.24882132 0.21540469 0.19289492 0.11421552 0.10744404 0.14663613 0.068860725
0.13825886 0.23816898 0.042433668 0.07763244 -0.077990785 -0.047159687 0.017895648 0.075523205
0.0550864 0.06727053 0.074326515 0.07688146 -0.039706048 -0.122611254 -0.26957116 -0.08726691
0.0013546512 -0.13946067 -0.18905985 0.08018346 0.11498525 0.28263652 0.14070624 0.104143485
0.14262456 -0.1402551 -0.424422 -0.18664233 -0.049213525 0.09800546 -0.20673029 -0.3056201
-0.18395677 -0.18946204 0.017010719 0.056252666 0.10031925 0.07554251 0.11577981 0.08893805
0.020767927 0.094757676 0.022176705 0.0973726 0.08056855 -0.13063101 0.09702473 0.37848547
0.35598326 0.23226462 -0.028865024 -0.12957096 0.068805926 -0.052309312 -0.108080335 -0.08691549
0.05137473 0.07642352 -0.170945 -0.1892952 -0.15580155 -0.07904025 -0.05553165 0.057045106
0.10100754 0.056973305 0.0742287 0.18259823 0.11136944 0.20344938 0.12162381 -0.20402355
-0.052799925 -0.07916033 0.1866262 0.46251798 0.2078221 -0.19367228 -0.5978989 -0.8321373
-0.6068495 -0.38521206 -0.45115414 -0.29994625 -0.06767575 -0.095547184 -0.3955522 -0.27878162
-0.19434212 -0.09091579 0.024932723 0.06853374 0.085131705 0.09691303 0.06825961 -0.0046542143

fc2.weight f4 [128, 128]
00000000: fd2d c8be 4789 e9bd b850 7abe c33d 80be
00000010: 120e d43c 1f0a 23be 13cc 34bf 20aa 843d
00000020: 641c 34be 6cab 603e 1704 ed3a a642 013e
00000030: 9476 3d3f f543 cc3e e8e2 98be cdc2 1abf
00000040: de4f 293d 4a76 21be 72ff 1a3e bb4c 273d
00000050: 3de3 8a3d 096a ec3e d95b 8d3e 957c 58be
00000060: 0432 1cbd 9980 8e3e a2ad 0dbf f541 e5be
00000070: 0441 73bd b494 2c3f 73cc 3a3f 6d92 1ebe
00000080: ec2d 38be bfb5 833e 16db c6be cc00 e3bd
00000090: 8591 933e 8d65 bebe 517a d5be 65b1 143c
000000a0: a790 3bbe a342 a33d ea01 a7be dea4 c1be
000000b0: da41 f8be cef6 17be 2556 dabd a03b 1dbe
000000c0: eaeb b53d bf1a f4bd 2a5d d5bf 9a09 afbd
000000d0: 7212 70bd 3323 273e 8d68 c2be 6ad6 abbe
000000e0: a5f6 8c3c d6ad 023e bc52 8fbe eda1 45bf
000000f0: 184c b7be d3b8 2bbe 7d34 193f 6016 153e
00000100: d43a 0dbe 6693 ae3e b99d 7d3d d25f 60be
00000110: 6560 f9bd 5726 3f3d 442a 16bf 6eae 82be
00000120: 0e4e 80be 9ac6 d9bc 0942 b73e d8ca b1be
00000130: cfb2 cebe 26d8 febe 854f f5be 9d82 8fbd
00000140: cf43 22be e618 df3e 2a5b 433e ccc1 09bf
00000150: ba85 db3d 585a 5abf 7251 fe3c aa21 a73d
00000160: 8a66 71bd 05ae dabe 39c1 54bf 84ec 873e
00000170: cd18 9f3d a139 cfbd 8fcc 01bf 2366 fa3d
00000180: 140d 3cbd 2cf9 9ebe 18a5 1fbf 5c63 bd3d
00000190: 9c4e bd3e bb79 92bd c179 52be 312d 9fbe
000001a0: a5ed a6be f974 4a3e 179f 813e 343d efbe
000001b0: 683f 46bf e91d 7f3d 7ce1 b4bf 62f4 edbe
000001c0: 0b5d cabe 3fb9 dc3d a115 983f befa 343e
000001d0: 51e0 663b 4050 733e 7eb3 a53c 2858 8b3e
000001e0: 1d53 703e 24eb 853e 29b2 2ebd 4a57 323d
000001f0: b2c6 223f 9756 02be f1d6 31be 710b 883c
00000200: c403 433d 3e49 5fbf 1b88 233f fd8b 553e
00000210: 3578 f2be 6e50 3abe 321b 9fbe f75a b43e
00000220: 1cfd cf3d 1f0b 993e 504f 69be 2134 7e3f
00000230: aaf7 90be aa55 2a3d e08b 9c3e eb74 bbbe
00000240: a1fc 1cbd 89de bcbd 4dd3 823e eef7 9c3e
00000250: a7dc 5bbd 7fcf d73d 4d98 9ebd f224 bebe
00000260: aa40 a7be d70f 5dbe 91e9 64bf 8d84 9ebe
00000270: 7552 53bd 0ed8 52be 6de5 063f 43f7 46be
00000280: 81ca b0be d43c febb 0b38 eb3d cd39 e0be
00000290: 7521 5b3e 4ace 9c3d c9fb 013f 5379 01bf
000002a0: 8ace 01bf 49f6 e83d 061d 82be eb21 1c3f
000002b0: 6892 60bf 5857 39bf 5ac4 a3be 59ae 0dbe
000002c0: b096 9bbe d7d8 02be 0fc2 bfbe be16 b13e
000002d0: e140 253e a203 b9bc 712b 8b3d af0c 85be
000002e0: 49be 4bbf 507c efbc 5ef6 0e3e 2edd 85bf
000002f0: 8269 fcbd c103 f5be 5692 f53e 0150 48be
00000300: 3ca7 2cbf 24b1 613e 2d23 b73b f596 683e
00000310: 01c1 133f 008a cfbe 1d4c 6ebe d970 ebbd
00000320: c26d 24bf 7896 f13d 5a7e 33bf 7c3f 893e
00000330: c6d3 24bf 5df8 673d e117 373e ac79 12be
00000340: 0eae 2cbf b7be 5dbe d2d6 f33e 45e9 1e3f
00000350: 3ab3 c03c 25d3 86bf 581c 8abd 0c48 853d
00000360: c291 f3bd d416 8abe e12e 60bf 551f f73d
00000370: 7126 c23d d899 e93e a269 19bf 1587 f53e
00000380: 8c88 d13c 9638 9b3e c918 3b3e 5b25 1a3f
00000390: dc49 a03e 92f0 10bf 2c06 7abe b7c2 58bd
000003a0: 1262 b23e 8a0a 56be d026 a8bd 7109 30be
000003b0: 2f06 d3bd 0e28 de3e 064d d9bd ad2b 373e
000003c0: 2b94 27be 59aa d9bd 2018 da3d 4985 a33e
000003d0: edd0 a0bc bc5f 833e 4756 81bd dea8 413e
000003e0: 9341 46bf 8bd4 2cbe f4f3 7eba 20d0 073f
000003f0: 7b5a ab3e ca36 d6be 5ea9 f73d 1552 cfbd
-0.39097586 -0.11403137 -0.24444854 -0.2504712 0.025885615 -0.1592183 -0.7062389 0.06477761
-0.17588955 0.21940392 0.0018082884 0.1262308 0.7400906 0.39895597 -0.29860616 -0.6045349
0.041335933 -0.1576778 0.15136507 0.04084466 0.067816235 0.46174648 0.27609137 -0.21141274
-0.038133636 0.27832487 -0.5534307 -0.44776884 -0.059388176 0.674144 0.72968215 -0.15485545
-0.17986268 0.257246 -0.38839024 -0.11084136 0.2882196 -0.37186852 -0.41694883 0.009075497
-0.18316899 0.07971694 -0.32618648 -0.37821096 -0.4848774 -0.14840242 -0.10660962 -0.15354776
0.08882888 -0.11919164 -1.6669056 -0.08546753 -0.05861134 0.16322021 -0.3797039 -0.33562022
0.017207453 0.12761626 -0.2799281 -0.77200204 -0.35800242 -0.16769724 0.59845716 0.14559317
-0.13791972 0.3409683 0.061917994 -0.21911553 -0.12176589 0.046667423 -0.5865824 -0.25523704
-0.2505955 -0.026583958 0.35792568 -0.3472507 -0.40370795 -0.49774283 -0.4791223 -0.070073344
-0.1584618 0.43573684 0.19077745 -0.53811336 0.10718866 -0.85294104 0.031044696 0.08160718
-0.05893568 -0.4271089 -0.83107334 0.26547635 0.07768402 -0.10118414 -0.50702757 0.12226512
-0.04591091 -0.31049478 -0.6236129 0.09247467 0.36974037 -0.071521245 -0.20554258 -0.31089166
-0.32603183 0.19771184 0.25316688 -0.46726382 -0.774405 0.062284384 -1.4131312 -0.46475512
-0.3952411 0.107775204 1.1881601 0.17673776 0.0035228918 0.23761082 0.02022719 0.27215695
0.23469205 0.2615596 -0.042650376 0.043540277 0.63584435 -0.12728344 -0.1736715 0.016607018
0.047611013 -0.87221134 0.63879555 0.20854183 -0.47357336 -0.18194744 -0.31075436 0.3522565
0.10155699 0.29891297 -0.22784162 0.9929829 -0.28313953 0.041585602 0.30575466 -0.3661264
-0.038326863 -0.09222133 0.25551835 0.30657905 -0.053677227 0.105376236 -0.07743893 -0.37137562
-0.32666522 -0.21588074 -0.89418894 -0.30960503 -0.05159231 -0.20590231 0.52693826 -0.1943026
-0.34529498 -0.007758716 0.11485299 -0.43794098 0.21399482 0.07656534 0.5077482 -0.5057575
-0.5070578 0.113751 -0.25412768 0.60989255 -0.877234 -0.723989 -0.31985742 -0.1383604
-0.30388403 -0.1277803 -0.37452742 0.34587663 0.1613803 -0.02258474 0.06795395 -0.2598624
-0.7958723 -0.029234082 0.13961169 -1.0458124 -0.123248115 -0.47854427 0.47963208 -0.19561769
-0.6744268 0.2204023 0.00558891 0.22713836 0.57716376 -0.40534973 -0.23271222 -0.11496133
-0.6422998 0.11796278 -0.7011467 0.26806247 -0.6438564 0.056633342 0.17880203 -0.14304227
-0.67453086 -0.21654783 0.47624832 0.6207469 0.023522962 -1.0533186 -0.067436874 0.065078825
-0.118930355 -0.2697054 -0.8757153 0.12066523 0.09479988 0.45625186 -0.5992681 0.47954622
0.025577806 0.3031661 0.18271174 0.6021325 0.3130635 -0.5661708 -0.24416417 -0.05292007
0.34840447 -0.20902458 -0.08210528 -0.17191102 -0.10303914 0.43389934 -0.10610394 0.17887755
-0.16365115 -0.10628194 0.10649133 0.31937626 -0.019630874 0.25658977 -0.06315284 0.18912074
-0.7744381 -0.16877954 -0.0009725683 0.5305195 0.3346747 -0.41838676 0.12092851 -0.10123078

fc3.weight f4 [128, 128]
00000000: 2b1e 3bbb 7e5b b9bc a274 8d3e e1b7 de3e
00000010: 6252 a2be a32d 303f 0498 83be 997c 04be
00000020: b2e4 9a3d 24a9 d63d b44b afbe ae5c 913d
00000030: 6488 a4be 6cea 06bf d0c7 cebe 2261 eebb
00000040: b333 c03e 2d92 8abe 6bd0 03bf 4773 b53e
00000050: 922b c4be 2495 c9be 38a8 8e3e 1293 b33e
00000060: c624 d1be 5804 bdbe 49b3 eb3d c656 11be
00000070: 79e4 ef3e 2401 f7be 974b d0be a88e 9fbe
00000080: 7cb7 abbe f994 bd3c c6d5 b73d 00b9 85be
00000090: fe77 c7bd 5379 f0be 1a26 cfbd 5aa2 cebc
000000a0: d73d 793c e6e5 da3e 4471 83bd 19d8 06be
000000b0: 74b4 593c f694 e43e 8440 4cbe f10a 3f3b
000000c0: eada 6bbe 4dad 17be f76e 6b3e f960 78be
000000d0: 67a0 cf3c 2c36 f23d 097c 2cbd 9edd 9dbe
000000e0: aff3 53be 746e 50be 4c57 acbe e00d 1c3e
000000f0: 70aa d8be 1df9 9c3e 0e49 eb3d 85c5 7a3e
00000100: d6cc 8ebe 1558 943d 93f7 acbc 89cc a3bc
00000110: 021d a4bd f7af f83e 1e52 5ebe d736 373d
00000120: 4d33 e63e ca31 ffbd 9657 6dbd cc61 3c3e
00000130: 26a7 eebe 0cc7 a6bc ea6e 25bf 3d0e ee3d
00000140: 8075 45bf 986d b53e 5fd9 2d3e 8c0c e4bc
00000150: cbfe 683e 2ace c63e 41ab 51be a6f1 edbd
00000160: 0539 823e c788 863e e584 05bd 9beb 5abe
00000170: ac15 18bf a79d 33be d39b 9e3c bbe3 d13e
00000180: 738f f6be bef8 51bc 31da bb3e 128f 90be
00000190: 9598 24be d39a 083e 6ac8 d1be 54d0 6ebe
000001a0: e6b5 46be 6226 423d 3d6b 323d edf5 273e
000001b0: 90fc 823b 11ab 2bbf 6194 8dbe 758c 443d
000001c0: 11b3 8c3d 0fff 9d3e 783d edbe 633e 7b3e
000001d0: 40f6 26be 1e21 abbe 6e25 913e 68ff 82be
000001e0: c77c 923e f466 5abe 327d 18be 7f77 edbe
000001f0: 7676 ed3e eb2f e4bc c7fe 1c3f bd46 f9bd
00000200: 9f30 0dbe c7ad a9be f800 9cbe 7955 9ebe
00000210: 729f b0be 6f73 f33c bc97 9cbe 6542 1ebd
00000220: f332 c4be 7219 e53e 1261 873e 43d7 c83e
00000230: b8a0 b6be d4b0 fb3d 8ebc 8ebd d608 f9bd
00000240: 9d1a fd3e a110 02bb 2daf 8f3d 8d23 64be
00000250: 89a8 4fbf 9619 9bbe ee6b 32be f3ad 183e
00000260: 58d5 eb3d 098e a83e fa8a f13e c59c ab3d
00000270: e1a3 8dbe 35a7 9fbb 8f74 4dbf 44eb aabe
00000280: 68ce fabe b400 943e 0afe 30bf 6e23 5b3e
00000290: ae68 11bf 5b60 2abf cac0 413f e95e cabd
000002a0: 3dc2 2ab8 d2f4 863e f451 9b3e be99 d73c
000002b0: 572c 0b3e dbfe 11bf 044b ea3e 2603 2a3d
000002c0: 5981 ac3e ede7 7abe 6f1c ad3e 77ef 1ebd
000002d0: 3045 453e 312f 8c3e 7891 853e 0c91 f83d
000002e0: 3374 733d d501 ec3b 4062 333d 6b43 493e
000002f0: 0595 1b3e c487 3a3f 037a aebe cefe 343e
00000300: 2118 6e3e 9af2 65be c339 013e 1fc8 17bf
00000310: 21c7 ac3e eeef 1bbf ddf2 5e3d 63f3 433d
00000320: d115 c7bc c649 5c3c 2cb5 523e 4cb1 0d3f
00000330: 6b2d 96be b280 b23e 6eaf 4b3e 895d 083e
00000340: 439f 45be 5f6a d1bd 43c2 273e 1646 69be
00000350: 741d e8be f697 21be 0ce1 8cbe 0d71 87bd
00000360: d087 f03e e501 573d a127 dcbd d17f ad3e
00000370: d467 41be 7816 3cbd ec4a 573d 3d50 95be
00000380: 36e7 8cbe c0b1 883e c24d ef3e f21b 90bd
00000390: f517 463e 125d ed3e 0932 b9bc c7cf e1bd
000003a0: 16ce fa3d d673 b93e f956 09bc 4524 89be
000003b0: 528d e2bd 7534 593e c674 5b3e 4e53 143c
000003c0: 6c7a ccbe f4ef 5f3d 23aa 793d 4555 b33d
000003d0: 1cc6 553d 9873 4abf 6809 833e 4a1e 53be
000003e0: 05b2 7a3e 4397 5dbe d27c fc3e 8f27 81ba
000003f0: 5f74 3f3e 4b00 cf3e ff0d 6a3e 80d7 c9be
-0.0028551917 -0.022626635 0.27628046 0.43499663 -0.31703478 0.68819636 -0.25701916 -0.12938155
0.075631514 0.1048148 -0.34237444 0.07097755 -0.32135308 -0.5270145 -0.4038682 -0.0072747627
0.37539443 -0.27064648 -0.51489896 0.35439512 -0.38314492 -0.39371598 0.27862716 0.35073143
-0.40848368 -0.36917377 0.11508805 -0.14193258 0.46853998 -0.48243058 -0.4068267 -0.31163526
-0.33538425 0.023142325 0.08976321 -0.26117706 -0.097396836 -0.46967563 -0.10114689 -0.0252239
0.015212498 0.42753524 -0.06418088 -0.13168372 0.013287652 0.44644898 -0.19946486 0.0029150809
-0.23032728 -0.14812203 0.22991548 -0.24255742 0.02534504 0.11826739 -0.042110477 -0.30833143
-0.20698427 -0.20354635 -0.33660352 0.15239668 -0.42317533 0.30658808 0.114885435 0.2448941
-0.27890652 0.07243363 -0.021114146 -0.01999499 -0.08013345 0.4857175 -0.21711013 0.044730034
0.44961014 -0.124606684 -0.057944857 0.18396682 -0.466119 -0.020358585 -0.64622366 0.116238095
-0.77132416 0.35435176 0.16977452 -0.027838014 0.22753446 0.38829166 -0.20475484 -0.116183564
0.25434127 0.26276228 -0.03259744 -0.21378939 -0.5940807 -0.17540608 0.019361412 0.40994057
-0.48156318 -0.012815652 0.36689904 -0.28234154 -0.1607383 0.13340311 -0.40973216 -0.23321658
-0.19405326 0.047399886 0.0435593 0.16402407 0.003997393 -0.670579 -0.27652267 0.047985513
0.06870092 0.30858657 -0.4633596 0.24535517 -0.16304874 -0.33423704 0.2834887 -0.25585485
0.28610823 -0.21328336 -0.14891508 -0.4638023 0.4637944 -0.02785488 0.6132626 -0.121716954
-0.13788079 -0.33140394 -0.3046949 -0.30924585 -0.34496647 0.029718129 -0.30584514 -0.038637538
-0.3832012 0.44745976 0.26441246 0.39226732 -0.35669494 0.12289587 -0.06969558 -0.121598884
0.49434367 -0.0019846337 0.07015834 -0.22279187 -0.8111654 -0.30292958 -0.17423984 0.14910106
0.115153015 0.32920864 0.47176343 0.08379511 -0.27664092 -0.0048722276 -0.8025598 -0.33382618
-0.489856 0.28906786 -0.6913763 0.21400234 -0.56800354 -0.66553277 0.756848 -0.09881384
-4.0712057e-05 0.26358658 0.30335963 0.026318427 0.13591133 -0.57029504 0.45760357 0.04150691
0.33692434 -0.24502535 0.33810756 -0.03880259 0.19264674 0.27379754 0.26087546 0.121370405
0.059436988 0.007202367 0.04379487 0.19654624 0.15193565 0.7286341 -0.34077463 0.17675325
0.23251392 -0.22455826 0.1261969 -0.59289736 0.33745673 -0.6091298 0.05443083 0.047839534
-0.024302395 0.013445323 0.20576924 0.5534866 -0.29331526 0.34863812 0.1989114 0.13316931
-0.19299035 -0.10225367 0.16382699 -0.22780642 -0.4533497 -0.15780625 -0.27515447 -0.066133596
0.46978617 0.05249204 -0.10749746 0.3388658 -0.18887264 -0.045919865 0.052561685 -0.2916278
-0.2752015 0.26698112 0.46739012 -0.0703658 0.19345076 0.4636007 -0.022606866 -0.110259585
0.12246339 0.36221188 -0.008382552 -0.26785484 -0.11062111 0.21211417 0.21431264 0.0090530645
-0.3993715 0.054672197 0.06095327 0.08756498 0.052190885 -0.7908263 0.25593114 -0.20617023
0.24481972 -0.21639733 0.4931398 -0.0009853708 0.18696736 0.4042991 0.22856902 -0.39422226

fc4.weight f4 [10, 128]
00000000: 87a1 cfbe 4515 03bf 4dc2 973e 52c3 15bf
00000010: e8e8 44be 2715 8dbe 4962 113f dc72 6b3e
00000020: 97f2 e93e 2b87 c3bc 45c6 36be 0e08 32be
00000030: 9f5b 153f ec06 f93d 9930 75bd 1b28 97be
00000040: ad0b 81be 8db5 a93e 2656 dd3e 0ecb 14bf
00000050: 6c8e 143e 9249 173e f8d1 4bbe 1f4e 84be
00000060: 82a7 263e 8463 943e 7a1f fc3d da48 a6be
00000070: 2abc 9d3e f892 d93e be08 acbe 0103 0bbf
00000080: c88e d7be 8907 113f 2390 f1be f7bf fd3d
00000090: ad4a 1bbe 2023 a23e 699e babc cd2d febe
000000a0: 6946 37bf 5b2a 97bd aeb6 563e be66 a5be
000000b0: 3914 963e 3718 c4bd 8c97 d7be 54c9 833d
000000c0: 6708 603e 8151 c83d 650b 0c3e 150b 04be
000000d0: c00b 0b3d 74f4 61be fc70 623e 413f 3bbf
000000e0: 8a96 a8bc 8afe 9c3e 007e 9f3d 4287 303e
000000f0: e81e 5abe 36a7 10be 0cfc 1cbf 4716 983e
00000100: 4ece 2bbe f200 1fbf 7500 83be 02c9 8a3e
00000110: 4279 2cbf eb01 d8be d226 cdbe 333e dc3d
00000120: f841 f63d a7d6 9c3d e4b0 b63e 3cef c8be
00000130: fccd c2be 0a24 5c3e 0a51 81be b1c6 fbbd
00000140: 8654 223d 0907 46bd 6607 263e 18bd 02bd
00000150: ccb9 10be b660 5ebe 1bf8 823e 8017 c4bc
00000160: 4107 13be 970e f5bd 37c5 be3d 5b9b 213d
00000170: 6f39 2b3d b290 273e adef 9a3e d4e2 1e3e
00000180: 3116 c03d 97db b9be adb1 46be 3b3b 693c
00000190: 562b 6b3e 9f57 183e f3cb 473d 0a2e d8be
000001a0: b128 a23e 1a51 08bf 8750 18bd 1cef a9be
000001b0: 668d 7a3b cc15 0a3e 75d7 353f 12d5 14bb
000001c0: 6546 22be 9e6f c4bd 9840 203e de54 0f3d
000001d0: a140 0cbf 4fc4 e43c c844 ffbe 2ae2 4ebe
000001e0: fd48 e7bc e203 a9be cb43 f73e e54a 8bbe
000001f0: d1cf c93e 9aae 14be d3e5 2cbe 3ca9 e63e
00000200: 108c 9e3e e4c2 7a3d fc6b a0bd 2c3b 833e
00000210: f587 c83e 80cc d43d 68e2 b63d d9be 36be
00000220: 74f4 f7be 7bb2 92bd ec58 783e 9f5d 83be
00000230: 1b5c b9bd 119c fcbe 26bd b8be 240b 67be
00000240: 979b b5be 7914 32bf 1754 1dbe f047 e43e
00000250: 541e 833e 67ba 1cbf 8ed6 983e b58f 0dbf
00000260: fea7 c23d 2e66 a5be 012e 273d 7b77 9d3e
00000270: 1646 9fbe ff29 0dbe 2d5e 273f 61c2 73be
00000280: 9f62 963e 8cef b4be 5734 bc3e 74b5 cebe
00000290: 06e6 e73e 7d50 de3d 35c5 ac3e 2da7 a0be
000002a0: cda9 b6bd 3d25 0fbf bd23 f33d 03c1 923e
000002b0: 5872 893e 9f2c 09bf 2ce3 773e 1f27 47be
000002c0: f44d e63d bab3 40be 0ec7 bfbe 09b9 4b39
000002d0: 6157 d8bd 93a2 f1be 85c9 fd3e 204a e53e
000002e0: 4582 1dbf f97b 69be 54a1 b03e 74e5 35bd
000002f0: 01b2 e23d a7b1 9bbe 908b 07be 896b 0f39
00000300: 12a8 42be c502 c5be 23c0 913e 0c66 62be
00000310: bea5 b73e f8da d4bc 6dc6 83be d7f3 fc3c
00000320: 09b2 63be 2e4a e0be b62d f4bd fd96 9c3e
00000330: f189 34bf 341b 82bd cb9f afbe 8f9c a0be
00000340: ed02 d03e f587 953e 7c1a 8bbe c52b 9dbe
00000350: 2016 2abf c013 bb3e b1dd 883e fe6a f23d
00000360: 3d6f 2b3e 3a6c 5dbb 5780 3ebf 431f 323e
00000370: 9a40 e7be c6cc d2be a24b 14be 98a7 94be
00000380: 812a d0be d1fe ccbe f496 de3e 775d bd3e
00000390: 7e0f e7be cf51 3d3e a79a 45be 329b 963e
000003a0: 2abe dabe 2413 2f3e 5abc bf3e 6b7e 3a3e
000003b0: 6780 a7be 639f ed3e a751 27be c7d8 b53e
000003c0: 01d4 2fbe 9769 0fbf f6aa 603e d70c 2e3e
000003d0: 9828 123f d96b 793e 49bd ac3e 8c1d eabd
000003e0: 3204 19bf 0eb1 913e b370 3bbd 24ab 343e
000003f0: 5a5b a0be a361 0dbf ba9a ebbe 1d12 ec3d
-0.40552923 -0.5120433 0.29640427 -0.5850116 -0.19229472 -0.275552 0.56790596 0.22993034
0.45692894 -0.023868164 -0.17849071 -0.17385885 0.5834293 0.12159523 -0.0598608 -0.29522786
-0.2520422 0.33146325 0.4322979 -0.58122337 0.14507455 0.14774159 -0.19904315 -0.25840852
0.16274837 0.28982174 0.12310691 -0.32477456 0.3080762 0.4249494 -0.3360042 -0.5430146
-0.4210112 0.5665212 -0.4718028 0.1239013 -0.15165205 0.31667423 -0.022780614 -0.49644318
-0.7159181 -0.073811255 0.20968124 -0.3230495 0.29312304 -0.09574931 -0.4210781 0.06434885
0.21878205 0.09781171 0.13676222 -0.12894852 0.033946753 -0.22065908 0.22113413 -0.7314339
-0.020579595 0.30662948 0.077877045 0.17239097 -0.21300852 -0.14126286 -0.61322093 0.29704496
-0.16777918 -0.6211082 -0.25586286 0.27106482 -0.67372525 -0.42188963 -0.4006868 0.10754051
0.12024301 0.07658129 0.35681832 -0.3924502 -0.3804778 0.21498123 -0.2525714 -0.12293757
0.03963139 -0.048346553 0.1621376 -0.031918615 -0.14133376 -0.2171658 0.25579914 -0.023936987
-0.14358236 -0.119656734 0.093149595 0.0394548 0.04180282 0.1636379 0.30260983 0.15516216
0.09379233 -0.36300346 -0.19403715 0.014235313 0.2296575 0.14877175 0.048778486 -0.42222625
0.3167167 -0.5324875 -0.03718617 -0.33190238 0.0038231253 0.13484877 0.71031886 -0.0022710008
-0.15847166 -0.09591602 0.1564964 0.034993045 -0.54786116 0.027925638 -0.49857163 -0.20203462
-0.028233046 -0.33010775 0.4829391 -0.27205577 0.39416364 -0.1451973 -0.16884546 0.4505099
0.30966234 0.06122102 -0.078330964 0.25631082 0.39166227 0.10390568 0.08929902 -0.1784624
-0.4842869 -0.07162949 0.24252671 -0.25657365 -0.09050771 -0.4933782 -0.3608181 -0.22562844
-0.35470268 -0.6956249 -0.15364109 0.44586134 0.25609076 -0.6122193 0.29851192 -0.55297405
0.09504698 -0.3230452 0.040815357 0.3075522 -0.3110816 -0.13785551 0.65378076 -0.23804618
0.29372117 -0.3533901 0.36758682 -0.40372813 0.4529268 0.10855196 0.33744207 -0.31377545
-0.08919106 -0.55916196 0.11872051 0.2866288 0.2684505 -0.5358371 0.24207753 -0.19448517
0.11245337 -0.1881856 -0.37456554 0.0001942852 -0.10563541 -0.47194347 0.4956781 0.44783115
-0.615269 -0.22801198 0.34498084 -0.044408277 0.11069108 -0.30408975 -0.13236833 0.00013677603
-0.19009426 -0.38478675 0.284669 -0.2210924 0.3586864 -0.025983319 -0.25737324 0.03087799
-0.22235884 -0.43806595 -0.11922781 0.30583945 -0.7052298 -0.06352845 -0.343016 -0.31369445
0.40627232 0.2920529 -0.27168643 -0.30697456 -0.6644001 0.36538506 0.26731637 0.118368134
0.16741653 -0.0033786432 -0.7441458 0.17394738 -0.45166475 -0.41171855 -0.14481977 -0.29034114
-0.40657428 -0.4003816 0.43474543 0.3698537 -0.45129007 0.18488239 -0.19297276 0.2941528
-0.4272321 0.17097145 0.37448388 0.18212287 -0.3271515 0.46410665 -0.16339742 0.3551695
-0.17170717 -0.5602049 0.21940216 0.16997086 0.5709319 0.24357547 0.33738163 -0.11431417
-0.59772027 0.28455395 -0.045761775 0.1764341 -0.31319696 -0.55227107 -0.46016484 0.11526892
